21-10-28 05:22:36, INFO: exp_folder: experiments/gan1_32
21-10-28 05:22:36, INFO: images_folder: experiments/gan1_32/images
21-10-28 05:22:36, INFO: models_folder: experiments/gan1_32/models
21-10-28 05:23:18, INFO: generator: G(
  (model): Sequential(
    (0): Linear(
      (linear): Linear(in_features=2, out_features=32, bias=True)
    )
    (1): LeakyReLU(negative_slope=0.2, inplace=True)
    (2): Linear(
      (linear): Linear(in_features=32, out_features=32, bias=True)
    )
    (3): LeakyReLU(negative_slope=0.2, inplace=True)
    (4): Linear(
      (linear): Linear(in_features=32, out_features=32, bias=True)
    )
    (5): LeakyReLU(negative_slope=0.2, inplace=True)
    (6): Linear(
      (linear): Linear(in_features=32, out_features=32, bias=True)
    )
    (7): LeakyReLU(negative_slope=0.2, inplace=True)
    (8): Linear(
      (linear): Linear(in_features=32, out_features=2, bias=True)
    )
  )
)
21-10-28 05:23:18, INFO: discriminator: D(
  (shared_layers): Sequential(
    (0): Linear(
      (linear): SpectralNorm(
        (module): Linear(in_features=2, out_features=32, bias=True)
      )
    )
    (1): LeakyReLU(negative_slope=0.2, inplace=True)
    (2): Linear(
      (linear): SpectralNorm(
        (module): Linear(in_features=32, out_features=32, bias=True)
      )
    )
    (3): LeakyReLU(negative_slope=0.2, inplace=True)
  )
  (head_0): Sequential(
    (0): Linear(
      (linear): SpectralNorm(
        (module): Linear(in_features=32, out_features=1, bias=True)
      )
    )
    (1): Dropout(p=0.5, inplace=False)
    (2): Sigmoid()
  )
)
21-10-28 05:23:49, INFO: [epoch 0 it 0] dloss = 1.3919727802276611, gloss = -0.8546916246414185, prop_real = 0.09902, modes = 1, kl = 3.2188758248682006
21-10-28 05:24:35, INFO: [epoch 1 it 1000] dloss = 1.0716562271118164, gloss = -0.4834407567977905, prop_real = 0.02716, modes = 1, kl = 1.3409059219935422
…
