21-10-28 14:47:56, INFO: exp_folder: experiments/rfgan32_mask
21-10-28 14:47:56, INFO: images_folder: experiments/rfgan32_mask/images
21-10-28 14:47:56, INFO: models_folder: experiments/rfgan32_mask/models
21-10-28 14:48:35, INFO: generator: G(
  (model): Sequential(
    (0): Linear(
      (linear): Linear(in_features=2, out_features=32, bias=True)
    )
    (1): LeakyReLU(negative_slope=0.2, inplace=True)
    (2): Linear(
      (linear): Linear(in_features=32, out_features=32, bias=True)
    )
    (3): LeakyReLU(negative_slope=0.2, inplace=True)
    (4): Linear(
      (linear): Linear(in_features=32, out_features=32, bias=True)
    )
    (5): LeakyReLU(negative_slope=0.2, inplace=True)
    (6): Linear(
      (linear): Linear(in_features=32, out_features=32, bias=True)
    )
    (7): LeakyReLU(negative_slope=0.2, inplace=True)
    (8): Linear(
      (linear): Linear(in_features=32, out_features=2, bias=True)
    )
  )
)
21-10-28 14:48:35, INFO: discriminator: D(
  (shared_layers): Sequential(
    (0): Linear(
      (linear): SpectralNorm(
        (module): Linear(in_features=2, out_features=32, bias=True)
      )
    )
    (1): LeakyReLU(negative_slope=0.2, inplace=True)
    (2): Linear(
      (linear): SpectralNorm(
        (module): Linear(in_features=32, out_features=32, bias=True)
      )
    )
    (3): LeakyReLU(negative_slope=0.2, inplace=True)
  )
  (head_0): Sequential(
    (0): SpectralNorm(
      (module): MaskedLinear(in_features=32, out_features=1, bias=True)
    )
    (1): Dropout(p=0.5, inplace=False)
    (2): Sigmoid()
  )
  (head_1): Sequential(
    (0): SpectralNorm(
      (module): MaskedLinear(in_features=32, out_features=1, bias=True)
…
