21-10-28 01:44:36, INFO: exp_folder: experiments/hgan32
21-10-28 01:44:36, INFO: images_folder: experiments/hgan32/images
21-10-28 01:44:36, INFO: models_folder: experiments/hgan32/models
21-10-28 01:45:17, INFO: generator: G(
  (model): Sequential(
    (0): Linear(
      (linear): Linear(in_features=2, out_features=32, bias=True)
    )
    (1): LeakyReLU(negative_slope=0.2, inplace=True)
    (2): Linear(
      (linear): Linear(in_features=32, out_features=32, bias=True)
    )
    (3): LeakyReLU(negative_slope=0.2, inplace=True)
    (4): Linear(
      (linear): Linear(in_features=32, out_features=32, bias=True)
    )
    (5): LeakyReLU(negative_slope=0.2, inplace=True)
    (6): Linear(
      (linear): Linear(in_features=32, out_features=32, bias=True)
    )
    (7): LeakyReLU(negative_slope=0.2, inplace=True)
    (8): Linear(
      (linear): Linear(in_features=32, out_features=2, bias=True)
    )
  )
)
21-10-28 01:45:17, INFO: discriminator: D(
  (shared_layers): Sequential(
    (0): Linear(
      (linear): SpectralNorm(
        (module): Linear(in_features=2, out_features=32, bias=True)
      )
    )
    (1): LeakyReLU(negative_slope=0.2, inplace=True)
    (2): Linear(
      (linear): SpectralNorm(
        (module): Linear(in_features=32, out_features=32, bias=True)
      )
    )
    (3): LeakyReLU(negative_slope=0.2, inplace=True)
  )
  (head_0): Sequential(
    (0): Linear(
      (linear): SpectralNorm(
        (module): Linear(in_features=32, out_features=1, bias=True)
      )
    )
    (1): Dropout(p=0.5, inplace=False)
    (2): Sigmoid()
  )
  (head_1): Sequential(
    (0): Linear(
      (linear): SpectralNorm(
        (module): Linear(in_features=32, out_features=1, bias=True)
      )
    )
    (1): Dropout(p=0.5, inplace=False)
    (2): Sigmoid()
  )
  (head_2): Sequential(
    (0): Linear(
      (linear): SpectralNorm(
        (module): Linear(in_features=32, out_features=1, bias=True)
      )
    )
    (1): Dropout(p=0.5, inplace=False)
    (2): Sigmoid()
  )
  (head_3): Sequential(
    (0): Linear(
      (linear): SpectralNorm(
        (module): Linear(in_features=32, out_features=1, bias=True)
      )
    )
    (1): Dropout(p=0.5, inplace=False)
    (2): Sigmoid()
  )
  (head_4): Sequential(
    (0): Linear(
      (linear): SpectralNorm(
        (module): Linear(in_features=32, out_features=1, bias=True)
      )
    )
    (1): Dropout(p=0.5, inplace=False)
    (2): Sigmoid()
  )
)
21-10-28 01:45:46, INFO: [epoch 0 it 0] dloss = 7.019240856170654, gloss = 4.767376899719238, prop_real = 0.71058, modes = 1, kl = 3.2188758248682006
21-10-28 01:48:48, INFO: [epoch 1 it 1000] dloss = 5.709396839141846, gloss = 3.8507332801818848, prop_real = 0.01828, modes = 3, kl = 1.3357109559821776
…
